…
[2025-02-24 14:28:35,547] [INFO] [device.py:35:<module>] Using device: mps
[2025-02-24 14:49:39,584] [INFO] [device.py:35:<module>] Using device: mps
[2025-02-24 14:49:53,004] [INFO] [device.py:35:<module>] Using device: mps
[2025-02-24 16:03:38,375] [INFO] [device.py:35:<module>] Using device: mps
[2025-02-24 16:04:30,739] [INFO] [device.py:35:<module>] Using device: mps
[2025-02-24 16:37:16,008] [INFO] [device.py:35:<module>] Using device: mps
[2025-02-24 16:40:26,513] [INFO] [device.py:35:<module>] Using device: mps
[2025-02-24 16:40:27,075] [INFO] [LeNet5.py:112:main] Model(
  (layer1): Sequential(
    (0): Conv2d(3, 6, kernel_size=(5, 5), stride=(1, 1))
    (1): BatchNorm2d(6, eps=1e-05, momentum=0.1, affine=True, track_running_stats=True)
    (2): ReLU()
    (3): MaxPool2d(kernel_size=2, stride=2, padding=0, dilation=1, ceil_mode=False)
  )
  (layer2): Sequential(
    (0): Conv2d(6, 16, kernel_size=(5, 5), stride=(1, 1))
    (1): BatchNorm2d(16, eps=1e-05, momentum=0.1, affine=True, track_running_stats=True)
    (2): ReLU()
    (3): MaxPool2d(kernel_size=2, stride=2, padding=0, dilation=1, ceil_mode=False)
  )
  (fc1): Linear(in_features=400, out_features=120, bias=True)
  (relu): ReLU()
  (fc2): Linear(in_features=120, out_features=84, bias=True)
  (relu1): ReLU()
  (fc3): Linear(in_features=84, out_features=10, bias=True)
)
[2025-02-24 17:37:41,987] [INFO] [device.py:35:<module>] Using device: mps
[2025-02-24 17:38:36,615] [INFO] [device.py:35:<module>] Using device: mps
[2025-02-24 17:38:36,939] [INFO] [LeNet5.py:119:main] Model(
  (layer1): Sequential(
    (0): Conv2d(1, 6, kernel_size=(5, 5), stride=(1, 1))
    (1): BatchNorm2d(6, eps=1e-05, momentum=0.1, affine=True, track_running_stats=True)
    (2): ReLU()
    (3): MaxPool2d(kernel_size=2, stride=2, padding=0, dilation=1, ceil_mode=False)
  )
  (layer2): Sequential(
    (0): Conv2d(6, 16, kernel_size=(5, 5), stride=(1, 1))
    (1): BatchNorm2d(16, eps=1e-05, momentum=0.1, affine=True, track_running_stats=True)
    (2): ReLU()
    (3): MaxPool2d(kernel_size=2, stride=2, padding=0, dilation=1, ceil_mode=False)
  )
  (fc1): Linear(in_features=400, out_features=120, bias=True)
  (relu): ReLU()
  (fc2): Linear(in_features=120, out_features=84, bias=True)
  (relu1): ReLU()
  (fc3): Linear(in_features=84, out_features=10, bias=True)
)
[2025-02-24 17:39:59,026] [INFO] [device.py:35:<module>] Using device: mps
[2025-02-24 17:39:59,026] [INFO] [exp_basic.py:59:_acquire_device] Use CPU
[2025-02-24 17:39:59,028] [INFO] [exp_classification.py:64:_build_model] Number of parameters: 0.06M
[2025-02-24 19:22:22,399] [INFO] [device.py:35:<module>] Using device: mps
[2025-02-24 19:22:22,399] [INFO] [exp_basic.py:59:_acquire_device] Use CPU
…
          [-0.4242, -0.4242, -0.4242,  ..., -0.4242, -0.4242, -0.4242],
          [-0.4242, -0.4242, -0.4242,  ..., -0.4242, -0.4242, -0.4242],
          [-0.4242, -0.4242, -0.4242,  ..., -0.4242, -0.4242, -0.4242]]]]) 
image.shapetorch.Size([64, 1, 32, 32])
[2025-02-24 19:32:20,356] [INFO] [MNIST.py:106:main] labels: 
tensor([0, 1, 4, 2, 6, 3, 8, 9, 3, 3, 5, 0, 1, 0, 3, 4, 8, 0, 6, 9, 7, 8, 7, 1,
        2, 2, 3, 3, 4, 8, 2, 9, 6, 3, 0, 7, 7, 6, 7, 9, 8, 2, 5, 6, 6, 9, 9, 6,
        8, 3, 1, 9, 3, 3, 6, 5, 5, 7, 8, 1, 2, 0, 9, 3]) 
labels.shapetorch.Size([64, 1, 32, 32])
[2025-02-24 19:33:31,600] [INFO] [LeNet5.py:94:main] Model(
  (layer1): Sequential(
    (0): Conv2d(1, 6, kernel_size=(5, 5), stride=(1, 1))
    (1): BatchNorm2d(6, eps=1e-05, momentum=0.1, affine=True, track_running_stats=True)
    (2): ReLU()
    (3): MaxPool2d(kernel_size=2, stride=2, padding=0, dilation=1, ceil_mode=False)
  )
  (layer2): Sequential(
    (0): Conv2d(6, 16, kernel_size=(5, 5), stride=(1, 1))
    (1): BatchNorm2d(16, eps=1e-05, momentum=0.1, affine=True, track_running_stats=True)
    (2): ReLU()
    (3): MaxPool2d(kernel_size=2, stride=2, padding=0, dilation=1, ceil_mode=False)
  )
  (fc1): Linear(in_features=400, out_features=120, bias=True)
  (relu): ReLU()
  (fc2): Linear(in_features=120, out_features=84, bias=True)
  (relu1): ReLU()
  (fc3): Linear(in_features=84, out_features=10, bias=True)
)
[2025-02-24 19:50:53,273] [INFO] [exp_basic.py:56:_acquire_device] Use GPU: mps
[2025-02-24 19:50:53,286] [INFO] [exp_classification.py:81:_build_model] Number of parameters: 0.06M
[2025-02-24 19:51:28,645] [INFO] [exp_basic.py:56:_acquire_device] Use GPU: mps
[2025-02-24 19:51:28,646] [INFO] [exp_classification.py:81:_build_model] Number of parameters: 0.06M
…
[2025-02-24 19:52:32,415] [INFO] [exp_classification.py:126:train] Epoch [9/10], Step [400/938], Loss: 0.0669
[2025-02-24 19:52:35,624] [INFO] [exp_classification.py:126:train] Epoch [9/10], Step [800/938], Loss: 0.0018
[2025-02-24 19:52:39,930] [INFO] [exp_classification.py:126:train] Epoch [10/10], Step [400/938], Loss: 0.0038
[2025-02-24 19:52:43,122] [INFO] [exp_classification.py:126:train] Epoch [10/10], Step [800/938], Loss: 0.0279
[2025-02-24 19:52:45,535] [INFO] [exp_classification.py:139:valid] Accuracy of the network on the 10000 test images: 99.18 %
[2025-02-24 21:41:41,499] [INFO] [AlexNet.py:103:main] model: AlexNet(
  (layer1): Sequential(
    (0): Conv2d(3, 96, kernel_size=(11, 11), stride=(4, 4))
    (1): BatchNorm2d(96, eps=1e-05, momentum=0.1, affine=True, track_running_stats=True)
    (2): ReLU()
    (3): MaxPool2d(kernel_size=3, stride=2, padding=0, dilation=1, ceil_mode=False)
  )
  (layer2): Sequential(
    (0): Conv2d(96, 256, kernel_size=(5, 5), stride=(1, 1), padding=(2, 2))
    (1): BatchNorm2d(256, eps=1e-05, momentum=0.1, affine=True, track_running_stats=True)
    (2): ReLU()
    (3): MaxPool2d(kernel_size=3, stride=2, padding=0, dilation=1, ceil_mode=False)
  )
  (layer3): Sequential(
    (0): Conv2d(256, 384, kernel_size=(3, 3), stride=(1, 1), padding=(1, 1))
    (1): BatchNorm2d(384, eps=1e-05, momentum=0.1, affine=True, track_running_stats=True)
    (2): ReLU()
  )
  (layer4): Sequential(
    (0): Conv2d(384, 384, kernel_size=(3, 3), stride=(1, 1), padding=(1, 1))
    (1): BatchNorm2d(384, eps=1e-05, momentum=0.1, affine=True, track_running_stats=True)
    (2): ReLU()
  )
  (layer5): Sequential(
    (0): Conv2d(384, 256, kernel_size=(3, 3), stride=(1, 1), padding=(1, 1))
    (1): BatchNorm2d(256, eps=1e-05, momentum=0.1, affine=True, track_running_stats=True)
    (2): ReLU()
    (3): MaxPool2d(kernel_size=3, stride=2, padding=0, dilation=1, ceil_mode=False)
  )
  (fc1): Sequential(
    (0): Dropout(p=0.5, inplace=False)
    (1): Linear(in_features=9216, out_features=4096, bias=True)
    (2): ReLU()
  )
  (fc2): Sequential(
    (0): Dropout(p=0.5, inplace=False)
    (1): Linear(in_features=4096, out_features=4096, bias=True)
    (2): ReLU()
  )
  (fc3): Sequential(
    (0): Linear(in_features=4096, out_features=10, bias=True)
  )
)
[2025-02-24 21:42:26,429] [INFO] [AlexNet.py:103:main] model: AlexNet(
  (layer1): Sequential(
    (0): Conv2d(3, 96, kernel_size=(11, 11), stride=(4, 4))
    (1): BatchNorm2d(96, eps=1e-05, momentum=0.1, affine=True, track_running_stats=True)
    (2): ReLU()
    (3): MaxPool2d(kernel_size=3, stride=2, padding=0, dilation=1, ceil_mode=False)
  )
  (layer2): Sequential(
    (0): Conv2d(96, 256, kernel_size=(5, 5), stride=(1, 1), padding=(2, 2))
    (1): BatchNorm2d(256, eps=1e-05, momentum=0.1, affine=True, track_running_stats=True)
    (2): ReLU()
    (3): MaxPool2d(kernel_size=3, stride=2, padding=0, dilation=1, ceil_mode=False)
  )
  (layer3): Sequential(
    (0): Conv2d(256, 384, kernel_size=(3, 3), stride=(1, 1), padding=(1, 1))
    (1): BatchNorm2d(384, eps=1e-05, momentum=0.1, affine=True, track_running_stats=True)
    (2): ReLU()
  )
  (layer4): Sequential(
    (0): Conv2d(384, 384, kernel_size=(3, 3), stride=(1, 1), padding=(1, 1))
    (1): BatchNorm2d(384, eps=1e-05, momentum=0.1, affine=True, track_running_stats=True)
    (2): ReLU()
  )
  (layer5): Sequential(
    (0): Conv2d(384, 256, kernel_size=(3, 3), stride=(1, 1), padding=(1, 1))
    (1): BatchNorm2d(256, eps=1e-05, momentum=0.1, affine=True, track_running_stats=True)
    (2): ReLU()
    (3): MaxPool2d(kernel_size=3, stride=2, padding=0, dilation=1, ceil_mode=False)
  )
  (fc1): Sequential(
    (0): Dropout(p=0.5, inplace=False)
    (1): Linear(in_features=9216, out_features=4096, bias=True)
    (2): ReLU()
  )
  (fc2): Sequential(
    (0): Dropout(p=0.5, inplace=False)
    (1): Linear(in_features=4096, out_features=4096, bias=True)
    (2): ReLU()
  )
  (fc3): Sequential(
    (0): Linear(in_features=4096, out_features=10, bias=True)
  )
)
[2025-02-24 21:45:19,052] [INFO] [AlexNet.py:103:main] model: 
AlexNet(
  (layer1): Sequential(
    (0): Conv2d(3, 96, kernel_size=(11, 11), stride=(4, 4))
    (1): BatchNorm2d(96, eps=1e-05, momentum=0.1, affine=True, track_running_stats=True)
    (2): ReLU()
    (3): MaxPool2d(kernel_size=3, stride=2, padding=0, dilation=1, ceil_mode=False)
  )
  (layer2): Sequential(
    (0): Conv2d(96, 256, kernel_size=(5, 5), stride=(1, 1), padding=(2, 2))
    (1): BatchNorm2d(256, eps=1e-05, momentum=0.1, affine=True, track_running_stats=True)
    (2): ReLU()
    (3): MaxPool2d(kernel_size=3, stride=2, padding=0, dilation=1, ceil_mode=False)
  )
  (layer3): Sequential(
    (0): Conv2d(256, 384, kernel_size=(3, 3), stride=(1, 1), padding=(1, 1))
    (1): BatchNorm2d(384, eps=1e-05, momentum=0.1, affine=True, track_running_stats=True)
    (2): ReLU()
  )
  (layer4): Sequential(
    (0): Conv2d(384, 384, kernel_size=(3, 3), stride=(1, 1), padding=(1, 1))
    (1): BatchNorm2d(384, eps=1e-05, momentum=0.1, affine=True, track_running_stats=True)
    (2): ReLU()
  )
  (layer5): Sequential(
    (0): Conv2d(384, 256, kernel_size=(3, 3), stride=(1, 1), padding=(1, 1))
    (1): BatchNorm2d(256, eps=1e-05, momentum=0.1, affine=True, track_running_stats=True)
    (2): ReLU()
    (3): MaxPool2d(kernel_size=3, stride=2, padding=0, dilation=1, ceil_mode=False)
  )
  (fc1): Sequential(
    (0): Dropout(p=0.5, inplace=False)
    (1): Linear(in_features=9216, out_features=4096, bias=True)
    (2): ReLU()
  )
  (fc2): Sequential(
    (0): Dropout(p=0.5, inplace=False)
    (1): Linear(in_features=4096, out_features=4096, bias=True)
    (2): ReLU()
  )
  (fc3): Sequential(
    (0): Linear(in_features=4096, out_features=10, bias=True)
  )
)
[2025-02-24 23:28:01,131] [INFO] [AlexNet.py:107:main] model: 
AlexNet(
  (layer1): Sequential(
    (0): Conv2d(3, 96, kernel_size=(11, 11), stride=(4, 4))
    (1): BatchNorm2d(96, eps=1e-05, momentum=0.1, affine=True, track_running_stats=True)
    (2): ReLU()
    (3): MaxPool2d(kernel_size=3, stride=2, padding=0, dilation=1, ceil_mode=False)
  )
  (layer2): Sequential(
    (0): Conv2d(96, 256, kernel_size=(5, 5), stride=(1, 1), padding=(2, 2))
    (1): BatchNorm2d(256, eps=1e-05, momentum=0.1, affine=True, track_running_stats=True)
    (2): ReLU()
    (3): MaxPool2d(kernel_size=3, stride=2, padding=0, dilation=1, ceil_mode=False)
  )
  (layer3): Sequential(
    (0): Conv2d(256, 384, kernel_size=(3, 3), stride=(1, 1), padding=(1, 1))
    (1): BatchNorm2d(384, eps=1e-05, momentum=0.1, affine=True, track_running_stats=True)
    (2): ReLU()
  )
  (layer4): Sequential(
    (0): Conv2d(384, 384, kernel_size=(3, 3), stride=(1, 1), padding=(1, 1))
    (1): BatchNorm2d(384, eps=1e-05, momentum=0.1, affine=True, track_running_stats=True)
    (2): ReLU()
  )
  (layer5): Sequential(
    (0): Conv2d(384, 256, kernel_size=(3, 3), stride=(1, 1), padding=(1, 1))
    (1): BatchNorm2d(256, eps=1e-05, momentum=0.1, affine=True, track_running_stats=True)
    (2): ReLU()
    (3): MaxPool2d(kernel_size=3, stride=2, padding=0, dilation=1, ceil_mode=False)
  )
  (fc1): Sequential(
    (0): Dropout(p=0.5, inplace=False)
    (1): Linear(in_features=9216, out_features=4096, bias=True)
    (2): ReLU()
  )
  (fc2): Sequential(
    (0): Dropout(p=0.5, inplace=False)
    (1): Linear(in_features=4096, out_features=4096, bias=True)
    (2): ReLU()
  )
  (fc3): Sequential(
    (0): Linear(in_features=4096, out_features=10, bias=True)
  )
)
[2025-02-24 23:30:21,208] [INFO] [CIFAR10.py:205:main] images: 
tensor([[[[-1.2466, -1.2466, -1.2466,  ..., -1.3241, -1.3241, -1.3241],
          [-1.2466, -1.2466, -1.2466,  ..., -1.3241, -1.3241, -1.3241],
          [-1.2466, -1.2466, -1.2466,  ..., -1.3241, -1.3241, -1.3241],
          ...,
          [-0.4130, -0.4130, -0.4130,  ..., -0.7232, -0.7232, -0.7232],
…
